trained_llm.pth (torch, 59205 bytes, 4 tensors)

token_embedding_table.weight f4 [78, 64]
0	0xbea55bf9	-0.32296732
1	0x3eb59ae8	0.35469747
2	0xbfa1efa1	-1.2651254
3	0xbfceb984	-1.6150365
4	0xc005d380	-2.091034
5	0xbeaf9c46	-0.34298915
6	0x3f7481da	0.9551064
7	0x3ed5df62	0.4177199
8	0x3ead7ba5	0.33883396
9	0x3eecaf53	0.46227512
10	0x3f8875c4	1.0660939
11	0xbf8cfeba	-1.1015236
12	0xbfae17d3	-1.360102
13	0x3e0efe44	0.13964182
14	0xbfabecf1	-1.3431684
15	0xbf74eae0	-0.9567089
16	0x3e140241	0.14453985
17	0xbf1a3ec3	-0.60252017
18	0xbfe0459e	-1.7521245
19	0xbf86f4fd	-1.0543514
20	0x3e8cfaba	0.2753504
21	0x3f40b601	0.75277716
22	0xbd10b1a6	-0.03532567
23	0x3f3023a2	0.6880437
24	0xbe461a1f	-0.19345902
25	0x3fc5f08b	1.5464033
26	0xc001efb3	-2.030255
27	0xbfd0a82a	-1.630132
28	0x3f5bb7ba	0.8582722
29	0x3ec9a3cb	0.39382777
30	0xbf08e6b1	-0.5347701
31	0x40152e56	2.3309531
32	0x3e89f368	0.26943517
33	0x3f6cc7fa	0.9249264
34	0xbe26f1b8	-0.16303146
35	0x3e9ec5ce	0.31010288
36	0x3e1c382e	0.15255806
37	0xbf1319f4	-0.57461476
38	0x3f5a256b	0.85213345
39	0x3e863221	0.2621012
40	0xbfb86e79	-1.4408714
41	0xbf6ef868	-0.9334779
42	0xc0005bc0	-2.0056
43	0x3eb70628	0.35746884
44	0x3f7617eb	0.96130246
45	0xbf8c1779	-1.0944663
46	0x3fb5ae8f	1.4193896
47	0x3ffbecd4	1.9681649
48	0xbf7351f0	-0.950469
49	0xbe96d1c1	-0.29456905
50	0xbf5e06e9	-0.86729294
51	0xbf74b7f9	-0.9559322
52	0x3d1eb31a	0.038745023
53	0xc0463c5b	-3.0974338
54	0xbf77acb6	-0.9674791
55	0xbf58562e	-0.845065
56	0x3e16b00c	0.14715594
57	0x3f37b8f7	0.7176661
58	0xbed38870	-0.4131503
59	0xbf95e825	-1.171147
60	0x3f58abfd	0.84637433
61	0xbfe36d93	-1.7767814
62	0x4002d6f2	2.0443692
63	0xbed8d115	-0.42347017
64	0x3ed55c3d	0.41671935
65	0x3f327343	0.69707125
66	0x3f84814f	1.0351962
67	0x3f22181f	0.63318056
68	0xbf029395	-0.5100644
69	0x3fe4fd3e	1.7889783
70	0x3ee9d4cd	0.45670167
71	0xbf300f96	-0.6877378
72	0xbf19292f	-0.59828466
73	0xbfb8e3eb	-1.4444555
74	0x3bc5fdc1	0.0060422127
75	0xbf9c27ba	-1.2199624
76	0x3f1d79df	0.61514086
77	0xbe2e5f63	-0.17028575
78	0xbf0a09f6	-0.5392145
79	0xbf510698	-0.81650686
80	0x3fb42e42	1.4076617
81	0xbeba268b	-0.3635753
82	0xbf9bb38d	-1.216417
83	0xbf50e98c	-0.81606364
84	0xbf00bda0	-0.50289345
85	0x3f4aa754	0.7916157
86	0xbf107224	-0.56424165
87	0x3e83bf2a	0.25731784
88	0x3fb2bd72	1.3964064
89	0x3f06a5c3	0.5259668
90	0xbf4f7c28	-0.8104882
91	0xbeff42bc	-0.49855602
92	0x3fa960d9	1.323268
93	0x3e9d0048	0.30664277
94	0x3f146f53	0.5798237
95	0x3f8bc123	1.0918316
96	0xbeb2cfee	-0.34924263
97	0xbf259698	-0.6468291
98	0xbfd77cd6	-1.6834972
99	0x3ee2cba6	0.44295996
100	0xbeafcd2f	-0.3433623
101	0x3e0c03fc	0.13673395
102	0x401dbc35	2.4646122
103	0x3e4b928f	0.19880126
104	0xbf51f2ca	-0.8201109
105	0xbf1cd8cb	-0.612683
106	0xbfd40008	-1.656251
107	0xbe2ef4c9	-0.17085566
108	0x3e8a4360	0.27004528
109	0xbfa4d415	-1.2877222
110	0xbee38346	-0.4443609
111	0x3e86e5e2	0.26347262
112	0xbebfcee5	-0.37462536
113	0xbe35e11f	-0.17761658
114	0x3f91daaf	1.1394862
115	0x3e90c77d	0.28277197
116	0xbeaa9162	-0.33314043
117	0xbf10c4bf	-0.5655021
118	0xbf97fb43	-1.1873554
119	0xbcf374e3	-0.029718822
120	0xbf9523fd	-1.1651608
121	0xbe821832	-0.25409085
122	0x400e1d81	2.2205508
123	0x3f1a7552	0.60335267
124	0xbf0ef55c	-0.5584314
125	0xbfb2bc2e	-1.3963678
126	0xbfa9f670	-1.3278332
127	0xc016d75f	-2.3568952
128	0xbe4d8040	-0.20068455
129	0x3f403caa	0.75092566
130	0x3d0916e2	0.03346909
131	0x3e079f46	0.13244352
132	0xbfddbdac	-1.7323508
133	0x3f8ab74c	1.0837188
134	0xbd7a05ce	-0.061040692
135	0xbface703	-1.3507999
136	0xbfd12ad0	-1.634119
137	0x401e7465	2.4758542
138	0x3fd25a67	1.6433839
139	0x3fc94407	1.5723885
140	0x3ec8dc2c	0.39230478
141	0xbf168116	-0.5879072
142	0xbf1481b8	-0.58010435
143	0xbedbffe8	-0.42968678
144	0x3f14cc81	0.5812455
145	0xbf942f3b	-1.1576914
146	0x3e4b0a7f	0.19828223
147	0xc009f303	-2.1554573
148	0xc004dd07	-2.0759904
149	0xbf4f4f04	-0.80979943
150	0xbf3077fe	-0.68933094
151	0x3d7ab51a	0.06120787
152	0x3e3a5e86	0.1820012
153	0x3e80bf49	0.2514594
154	0x3fa1d710	1.2643757
155	0x3de15cf3	0.11004057
156	0xbf941220	-1.1568031
157	0x3da8aba9	0.082358666
158	0xbfd839a6	-1.6892593
159	0xbf899400	-1.0748291
160	0x3ef79b27	0.4836056
161	0x3f71dcff	0.9447784
162	0xbeee29e7	-0.46516344
163	0xbf72667a	-0.94687617
164	0xbdc21494	-0.09476581
165	0xbf082628	-0.5318322
166	0x3f5cab95	0.86199313
167	0xbe8c1a1d	-0.27363673
168	0xbe92da5a	-0.28682214
169	0xbfa0eb1f	-1.2571753
170	0xbff3c1bb	-1.9043497
171	0xbf04e3be	-0.51910007
172	0x3e878aff	0.26473233
173	0x3f2f1409	0.68389946
174	0xbee11eeb	-0.439689
175	0x3e96aaa6	0.2942707
176	0xbf9ed14b	-1.2407621
177	0x3ea572ff	0.32314298
178	0xbf2bad34	-0.6706116
179	0xbfc1e588	-1.5148172
180	0xbfe461cb	-1.7842344
181	0x3e704588	0.23464024
182	0x3eccd29c	0.40004432
183	0xbff70592	-1.9298575
184	0xc05ae931	-3.4204829
185	0x3f895484	1.0728917
186	0xbfd3bbff	-1.6541747
187	0xbf001a1c	-0.5003984
188	0xbec8f05a	-0.39245874
189	0x4021c25c	2.5274878
190	0xc01a84bb	-2.4143512
191	0x3ff02447	1.8761071
192	0x3ee1b9b8	0.44087005
193	0x3f6f4c6c	0.93475986
194	0xbf0e1b58	-0.55510473
195	0xbe9bdef2	-0.3044353
196	0xbdfd5b51	-0.12370933
197	0xbf8f8cc3	-1.1214832
198	0xbecf8f89	-0.40539196
199	0xbde465f2	-0.11152257
200	0x3f691907	0.91053814
201	0x400b62a1	2.1778948
202	0x3f80a263	1.0049556
203	0xbe962e7d	-0.29332343
204	0x3f18d806	0.59704626
205	0xbf1e169b	-0.61753243
206	0xbfa812e5	-1.3130766
207	0xbf22cefe	-0.63597095
208	0x3fe2922e	1.770086
209	0xbf1e35eb	-0.6180102
210	0x3eb9e7bb	0.3630961
211	0x3f2c5e58	0.6733146
212	0xbecf1634	-0.40446627
213	0x4015cb3d	2.3405297
214	0x3de75f5e	0.11297487
215	0x3ee7eaad	0.4529623
216	0xbfc83dd6	-1.5643871
217	0x3fc56ced	1.5423867
218	0xbf9cc77b	-1.2248377
219	0xbf7aeeec	-0.98020816
220	0xbf5a5d46	-0.85298574
221	0x402be3e9	2.6857855
222	0x3ea379c2	0.3192883
223	0x3e166e74	0.14690572
224	0xbf7dc3f5	-0.9912713
225	0xbf95905a	-1.1684678
226	0x3f068347	0.52544063
227	0x3da94e39	0.08266873
228	0x400c3246	2.1905684
229	0xbff5e25d	-1.9209706
230	0x3f24898c	0.6427238
231	0xbeb4ff8f	-0.35351226
232	0x3f9e6549	1.237466
233	0x3d3846c0	0.044989347
234	0xbe9a2671	-0.30107453
235	0x3fbfbc7a	1.4979393
236	0x3ec098e5	0.3761665
237	0x3fcb72f3	1.5894455
238	0x3f168dd9	0.5881019
239	0xbeba99f8	-0.36445594
240	0xbf1667fe	-0.5875243
241	0xbf31ebbf	-0.69500345
242	0xbfbb148e	-1.4615648
243	0xbfafb1f1	-1.3726178
244	0x3fd8a59c	1.692554
245	0x3f151c27	0.5824608
246	0x3d7750c2	0.06037975
247	0xbfa77757	-1.3083295
248	0xbf7d48c2	-0.98939145
249	0xbf3f63f9	-0.7476192
250	0x3ee9f0e2	0.45691592
251	0xbfd9b9a2	-1.7009776
252	0x3f7f424d	0.9971054
253	0x3f9feb85	1.249375
254	0x3f5b0eba	0.85569346
255	0xc04b7514	-3.179021

position_embedding_table.weight f4 [64, 64]
0	0x3fd07628	1.6286058
1	0xc0134d40	-2.30159
2	0xbcaaa440	-0.020830274
3	0x3e9cf4bf	0.30655476
4	0x3f9536c7	1.1657342
5	0x3f3c99f9	0.73672444
6	0xbf2bbb80	-0.6708298
7	0x3f039d1c	0.51411605
8	0xbf3df462	-0.74201024
9	0x3fcd8019	1.6054717
10	0x4009dffc	2.154296
11	0xbf3c9211	-0.7366038
12	0x3e664d8e	0.22490522
13	0xbfc98d2f	-1.5746211
14	0xbfa6568e	-1.2995164
15	0x3f8824fe	1.0636289
16	0x3f80a745	1.0051047
17	0xbf5a80ce	-0.8535279
18	0x3d9962a0	0.07489514
19	0x3f6d2115	0.92628604
20	0xbfba6583	-1.4562229
21	0xbf6e49da	-0.9308144
22	0x3fb5eea3	1.4213451
23	0x3fad849e	1.3556097
24	0x3f0a08d6	0.5391973
25	0x3f21061a	0.62899935
26	0xbfa6d455	-1.3033549
27	0xbe8ffed8	-0.28124118
28	0xbf280f46	-0.65648305
29	0xbf782819	-0.96936184
30	0xbf4ff829	-0.8123804
31	0x3e580ce7	0.21098672
32	0xbdd792bb	-0.105260335
33	0xbf967033	-1.175299
34	0x3efbb76b	0.49163374
35	0x3f0e7c6c	0.556586
36	0xbf70857b	-0.93953675
37	0x3d8afae0	0.06786132
38	0x3f2b405d	0.66895086
39	0x3f20821f	0.6269855
40	0x3f4194df	0.75617784
41	0xbec84a5a	-0.39119226
42	0x3f487b98	0.7831359
43	0x3e2f2fdf	0.17108105
44	0x3edf693c	0.43634975
45	0xbfbbdeea	-1.4677403
46	0xbfc04581	-1.5021211
47	0x3f46dc9c	0.77680373
48	0x3f947e7f	1.1601104
49	0x3f9851a2	1.1899912
50	0x3f246dc5	0.64229995
51	0x3e027245	0.12738903
52	0x3e5ba135	0.21448214
53	0x3f1e65ea	0.6187426
54	0xbf3946c8	-0.7237363
55	0xbed046d1	-0.4067903
56	0xbef6d05c	-0.4820584
57	0xbf6b4c61	-0.9191342
58	0x3fa34672	1.2755873
59	0xbcd8928a	-0.026437063
60	0x3f9d10d3	1.2270759
61	0xbf377b32	-0.71672356
62	0x3bf90390	0.0075993016
63	0xbf1a3e14	-0.60250974
64	0x3f910fbf	1.133293
65	0x3eab15ff	0.3341522
66	0xbd719faa	-0.05899016
67	0xbe9b0eab	-0.30284628
68	0x3f1430a7	0.5788674
69	0x3edd80e3	0.43262395
70	0x3f649eb9	0.8930469
71	0x3fb1ad33	1.3880981
72	0x3f8698a2	1.051533
73	0xbe57ffaf	-0.2109363
74	0x3eece63d	0.46269408
75	0xbf81c348	-1.013772
76	0xbfc752b3	-1.5572113
77	0x3f50450c	0.8135536
78	0xbe3b0e61	-0.18267204
79	0x3fc36bf6	1.5267322
80	0x3e6ca76c	0.23110741
81	0xbf1b75cf	-0.60726637
82	0xbecd0f61	-0.40050796
83	0x3ed36a4e	0.41292042
84	0xbf593617	-0.8484816
85	0x3eb347da	0.35015756
86	0x3e4bbf50	0.19897199
87	0x3b14ceae	0.0022706199
88	0x3f332c98	0.6998992
89	0xbf29d33e	-0.66337955
90	0xbf6bcee5	-0.9211257
91	0xbf18b11d	-0.59645253
92	0x3e313838	0.17306602
93	0xbf4c40f4	-0.7978661
94	0x3e1747cd	0.14773484
95	0x3e8d8f02	0.2764817
96	0xbedd5526	-0.43229026
97	0xbfc3c2e2	-1.5293849
98	0xbe859b08	-0.26094842
99	0xbfd88c2b	-1.6917776
100	0x3fef668f	1.8703173
101	0x3ecaed92	0.39634377
102	0xbf0b36ba	-0.5438038
103	0x3f1932e5	0.59843284
104	0x3f027d66	0.5097259
105	0xbf4066ff	-0.7515716
106	0x3fa97a9b	1.3240541
107	0xbf1317e4	-0.5745833
108	0xbd0fed23	-0.03513826
109	0xbfaaffd0	-1.3359318
110	0xbe31742d	-0.17329474
111	0xbf84bc0d	-1.0369889
112	0xbf90805b	-1.1289171
113	0xbf538c25	-0.8263572
114	0xbfe6aabe	-1.8020856
115	0x3f73de0b	0.95260686
116	0xbf95a1c5	-1.1689993
117	0xbd8c8ff1	-0.06863392
118	0xbe39004f	-0.18066524
119	0xbdea45f2	-0.11439122
120	0xbf20cd8d	-0.62813646
121	0x3ddabad4	0.10680166
122	0x3e9121c1	0.28346065
123	0xbf57fc2b	-0.8436915
124	0xbe807673	-0.2509037
125	0x3f51bc53	0.81927985
126	0x3f91dcc9	1.1395503
127	0xbf8fc38d	-1.1231552
128	0xbf7e9159	-0.9944053
129	0x3f5181cb	0.81838673
130	0xbf4402f1	-0.7656699
131	0xbf376094	-0.7163174
132	0x3fbdbd37	1.4823369
133	0xbf86e6d3	-1.0539192
134	0x3dc74f1c	0.09731886
135	0x3e924e65	0.28575435
136	0x3e931fb1	0.28735116
137	0x3faa8028	1.332036
138	0x3f179ef3	0.5922691
139	0x3e8e5ef8	0.2780683
140	0xbf9be906	-1.2180488
141	0x3ced532b	0.028970322
142	0x3d964353	0.0733706
143	0x3f8bc42d	1.0919243
144	0xbf09d291	-0.53836924
145	0xbeab5b73	-0.33468208
146	0x3f280656	0.6563467
147	0x3df65b7e	0.120291695
148	0xc00152f0	-2.020687
149	0x3efe0aac	0.49617517
150	0x3e8d8c27	0.2764599
151	0x3ebe3e96	0.37157124
152	0x3e27437c	0.16334337
153	0xbea82f8a	-0.3284877
154	0xbf057141	-0.52125937
155	0x3f2d89ec	0.6778858
156	0xbfa9d836	-1.3269107
157	0x3f105019	0.5637222
158	0x3fcb74c3	1.5895008
159	0x3fc2c77d	1.5217129
160	0x3f2e8f98	0.68187857
161	0xbf447b12	-0.7675029
162	0x3ec2ee6b	0.38072523
163	0x3e2634f7	0.16231142
164	0x3fb18ea0	1.3871651
165	0xc0288975	-2.6333897
166	0xbf0001e6	-0.50002897
167	0xbf31bdb0	-0.69430065
168	0xbf8971d4	-1.0737863
169	0xba541d6e	-0.00080915436
170	0x3eaa2ccc	0.33237302
171	0x3f036a21	0.51333815
172	0x3f2947c8	0.66125154
173	0x3c1543dc	0.009110417
174	0xbfb36189	-1.401414
175	0xbd26c37e	-0.04071378
176	0xbf9f03af	-1.2422999
177	0x3ed067d1	0.40704206
178	0xbef57947	-0.4794409
179	0x3e64bdcf	0.22338031
180	0xc020c61a	-2.5120912
181	0x3cbcedf1	0.023062678
182	0xbf334b3b	-0.7003667
183	0x3f82c4be	1.0216291
184	0xbf8de393	-1.1085075
185	0xbf8be9f3	-1.0930771
186	0xbe4561cf	-0.19275592
187	0x3f5a758b	0.85335606
188	0xbf6a0f73	-0.91429824
189	0xbf84fb95	-1.0389277
190	0x3ead4ff6	0.33850068
191	0xbe6c8e01	-0.23101045
192	0xbf05fec6	-0.5234188
193	0x3de421e8	0.111392796
194	0xbeeba2d5	-0.46022668
195	0x3e708c7e	0.23491094
196	0x3ecbe4fe	0.39823145
197	0x3f5449d3	0.82925147
198	0x3f72d462	0.9485532
199	0xbf91f473	-1.1402725
200	0xbe442ebf	-0.19158457
201	0xbdad2ec5	-0.08456186
202	0x3e88d4a9	0.26724747
203	0xbe9bf72a	-0.3046201
204	0xbeb08685	-0.3447763
205	0xbec8dda5	-0.392316
206	0xbf09d662	-0.5384275
207	0xbeeb3d9e	-0.45945448
208	0xbe1fd181	-0.15607263
209	0xbf4a444e	-0.79010475
210	0x3e056c59	0.13029613
211	0xbefe48eb	-0.49665007
212	0x3e5e7b2b	0.21726672
213	0x3e4d0539	0.20021524
214	0x3efe2bc0	0.49642754
215	0xbf7287ab	-0.9473826
216	0x3f46ca96	0.7765287
217	0x3de4153a	0.11136861
218	0x3e02b7a3	0.12765364
219	0x3e7e4b72	0.24833468
220	0xbf5350c4	-0.82545114
221	0xbe5d2812	-0.21597317
222	0xbc3ea6e8	-0.011636473
223	0xbe8b54de	-0.27213186
224	0xbf4bdc12	-0.79632676
225	0x3f87c42a	1.060674
226	0x3f3750ec	0.7160785
227	0xbed5d9f1	-0.4176784
228	0xbf4996f2	-0.7874595
229	0xbecbd2b3	-0.39809188
230	0x3e869e92	0.26292855
231	0xbe9adff0	-0.30248976
232	0x3dec58b0	0.11540353
233	0xbdbbe28a	-0.09174068
234	0xbf9c917e	-1.2231901
235	0x3f996bc6	1.1986015
236	0xbe4c57ec	-0.19955415
237	0x3f863932	1.0486205
238	0xbfccdd35	-1.6005007
239	0x3f1397eb	0.57653683
240	0x3e63ba85	0.2223912
241	0xbf0e6a8d	-0.55631334
242	0x3d372c34	0.04471989
243	0x3ec7929c	0.38979042
244	0x3eb6c9f8	0.35700965
245	0x3ef97c9d	0.48727885
246	0x3f7326c8	0.9498105
247	0xbf2750dc	-0.65357757
248	0x3d850537	0.06495135
249	0x3d6aa9ea	0.05729095
250	0x3f52b10f	0.8230142
251	0x3e821286	0.25404757
252	0x3ee10a85	0.43953338
253	0x3ec3daa9	0.38252762
254	0x3f396a20	0.7242756
255	0xbf11bd16	-0.5692915

lm_head.weight f4 [78, 64]
0	0xbd6cd0f1	-0.05781645
1	0xbdd8777e	-0.10569666
2	0xbe65db9e	-0.22447059
3	0xbe8fc3a4	-0.2807895
4	0xbd9c062b	-0.07618364
5	0x3d7f1d00	0.062283516
6	0x3cf4edb8	0.02989851
7	0xbddfa347	-0.109198146
8	0x3da8b29f	0.08237194
9	0x3e03a29a	0.12854996
10	0x3e019994	0.12656242
11	0x3c835039	0.016029464
12	0x3e6b2f38	0.22967231
13	0xbdd4b968	-0.10386926
14	0xbdc26e69	-0.09493715
15	0xbd512faa	-0.051070847
16	0x3d89925d	0.0671737
17	0xbdda56de	-0.106611
18	0xbd81513b	-0.063143216
19	0xbe685111	-0.22687174
20	0xbd917d7d	-0.07104013
21	0xbd8079bc	-0.06273219
22	0xbd7cb433	-0.06169529
23	0xbb7a9060	-0.0038233027
24	0x3d63c761	0.055610064
25	0x3cf86fc7	0.030326737
26	0x3c899339	0.016793834
27	0xbd2c117c	-0.042008862
28	0xbe6b12c1	-0.22956373
29	0xbd5c4e63	-0.053785693
30	0xbe0729c7	-0.1319953
31	0x3d9f8ed2	0.07790913
32	0x3d7ab7c2	0.0612104
33	0xbdb3e62c	-0.08784136
34	0x3da6de3a	0.08147855
35	0xbdf78f50	-0.120878816
36	0xbc95a9f9	-0.018269526
37	0xbc87dd48	-0.016585007
38	0xbdc4577d	-0.095869996
39	0xbe85851d	-0.2607812
40	0x3dee1f8d	0.116271116
41	0xbd4cf1a2	-0.050035127
42	0x3d521a6c	0.05129473
43	0x3d4edd8d	0.050504256
44	0x3e5ff1a4	0.21869522
45	0x3e3daae5	0.18522222
46	0x3e7f58b6	0.24936184
47	0x3d0196aa	0.031637825
48	0xbd504756	-0.05084928
49	0x3e04290c	0.12906283
50	0xbe5d2dda	-0.21599522
51	0xbe5ae2dc	-0.21375602
52	0xbd79c45f	-0.06097829
53	0xbdacef9d	-0.0844414
54	0x3d88f884	0.066880256
55	0xbb6a2f3e	-0.0035733725
56	0xbe5f0829	-0.21780457
57	0x3d99b5ba	0.07505365
58	0xbe171982	-0.14755824
59	0xbe5742c1	-0.21021558
60	0x3e81fcf4	0.253883
61	0x3e312101	0.17297746
62	0x3e4a5e9d	0.19762655
63	0xbd722513	-0.059117388
64	0x3d823422	0.063576
65	0xbda2ecb3	-0.07955303
66	0xbe8b024d	-0.27150193
67	0xbe142d0f	-0.14470313
68	0x3b322191	0.0027180652
69	0x3e7280e4	0.2368198
70	0xbcb4d296	-0.022073071
71	0xbe82b1b3	-0.255262
72	0xbd70c118	-0.0587779
73	0x3d8ce749	0.06880052
74	0x3dca0713	0.098646306
75	0x3d8ebeb2	0.06969966
76	0x3e51ab46	0.20475492
77	0xbd5704fa	-0.05249498
78	0x3e158484	0.14601332
79	0x3e0ca714	0.1373561
80	0x3e048a24	0.12943321
81	0xbe49e9dc	-0.19718117
82	0xbc6240f0	-0.013809428
83	0x3c8380fe	0.01605272
84	0xbe1fd562	-0.15608743
85	0xbe0d961d	-0.13826795
86	0x3de2e8cd	0.110795595
87	0x3e4b0a82	0.19828227
88	0x3e4d4c17	0.20048557
89	0x3b8ceb6c	0.0043005254
90	0x3e401762	0.1875892
91	0x3e429079	0.19000424
92	0xbe809cb6	-0.2511956
93	0xbe2f95e2	-0.1714702
94	0xbe43d4c2	-0.1912413
95	0x3ce20e0b	0.027594587
96	0x3e1d6a3c	0.15372556
97	0xbe35759b	-0.17720644
98	0x3df6cf28	0.12051231
99	0xbe6949e3	-0.22782092
100	0x3d9e4ae7	0.0772913
101	0xbdf490d8	-0.11941689
102	0xbe041143	-0.1289721
103	0xbe91b8f7	-0.2846143
104	0xbdba072d	-0.090834
105	0xbdd733b9	-0.10507912
106	0x3e40bd22	0.18822148
107	0x3df7537e	0.12076472
108	0x3e85a276	0.2610051
109	0x3ea25918	0.31708598
110	0xbd162263	-0.036653887
111	0xbc99b598	-0.018763348
112	0xbe44d0e2	-0.19220307
113	0xbe0e7241	-0.13910772
114	0xbe70b2c6	-0.23505697
115	0xbdcfbfb7	-0.101439886
116	0x3c8f3720	0.01748234
117	0x3e57c521	0.21071292
118	0x3e6b49e5	0.22977407
119	0x3cec1347	0.028817786
120	0xbe7dc53a	-0.24782267
121	0x3df9eb50	0.122030854
122	0xbdda33e7	-0.10654431
123	0xbe2a440f	-0.16627525
124	0x3ecd263a	0.40068227
125	0x3e5ef0cc	0.21771544
126	0x3d92c0e8	0.071657
127	0xbe22126e	-0.15827343
128	0x3bf8dfcf	0.0075950394
129	0x3ba9d2e2	0.00518261
130	0xbd94df09	-0.07269103
131	0xbbac1d38	-0.0052525066
132	0x3d363b8f	0.044490393
133	0xbc5e8c9d	-0.0135833295
134	0xbd04191c	-0.03225051
135	0x3c8815ed	0.016612018
136	0x3d3daf2b	0.04630963
137	0x3df97e0e	0.12182246
138	0x3ca3742f	0.019952862
139	0x3e861255	0.2618586
140	0x3e018da2	0.12651685
141	0x3dac80c0	0.084229946
142	0xbd6f4425	-0.058414597
143	0x3e0716ff	0.13192366
144	0xbe69a97f	-0.22818564
145	0x3ce00d8f	0.027350215
146	0xbbda6074	-0.00666433
147	0x3dd8ad93	0.10579982
148	0x3d9c8531	0.07642592
149	0xbdb06ae6	-0.08614139
150	0x3c283bf5	0.010268201
151	0xbda74d9b	-0.08169099
152	0xbdc23411	-0.09482587
153	0xbdad9e62	-0.08477475
154	0x3e33e6f4	0.1756857
155	0x3d6f0fa0	0.05836451
156	0xbdc9e705	-0.098585166
157	0xbdbd81ab	-0.09253248
158	0xbd6afa3b	-0.057367545
159	0xbe20a71e	-0.1568875
160	0xbe12ac7a	-0.14323607
161	0x3cae80f7	0.02130173
162	0x3ddc80ec	0.107667774
163	0xbd97d6db	-0.07414027
164	0xbd3516da	-0.044211246
165	0xbcaf4c83	-0.021398788
166	0xbe46379a	-0.19357148
167	0x3d7dcca4	0.06196274
168	0x3e1e3bec	0.15452546
169	0x3dd7011e	0.1049826
170	0x3e2cce3b	0.16875546
171	0xbd819fa7	-0.063292794
172	0xbd99c235	-0.07507745
173	0x3db70525	0.08936528
174	0x3dbf0165	0.09326438
175	0xbd2b07f7	-0.041755643
176	0xbcd53f4c	-0.026031159
177	0x3e13673d	0.14394851
178	0x3cdea284	0.027177103
179	0xbdbbd95a	-0.09172316
180	0x3d91a8bb	0.07112261
181	0x3e3246c1	0.17409803
182	0x3d79c547	0.060979154
183	0x3c90683e	0.017627832
184	0x3d063130	0.032761753
185	0x3cc0a46c	0.023515902
186	0xbdd04fd8	-0.10171479
187	0xbd03274a	-0.03201989
188	0x3c02e2ad	0.007988614
189	0x3dc749b6	0.09730856
190	0x3d3f4f63	0.04670657
191	0x3e1f89ae	0.15579864
192	0xbe28a722	-0.16470006
193	0x3d84edd0	0.06490672
194	0x3c75a09d	0.0149919065
195	0xbeadeb32	-0.33968502
196	0xbe14a7ae	-0.1451709
197	0x3ce82c01	0.028341295
198	0xbd3edff8	-0.046600312
199	0x3dfda89c	0.12385675
200	0x3d0a9c17	0.033840265
201	0x3e8890d9	0.2667301
202	0xba5549a6	-0.00081362796
203	0xbdb2d5de	-0.08732198
204	0x3ed6aa1e	0.41926664
205	0xbc952364	-0.018205352
206	0xbe86cefa	-0.26329786
207	0xbe24261d	-0.16030164
208	0xbe0368eb	-0.12832992
209	0xbe65062f	-0.2236564
210	0xbd662775	-0.056189973
211	0xbeaf48b4	-0.34235156
212	0xbdc25fc3	-0.09490921
213	0x3e0eba60	0.13938284
214	0xbe70357c	-0.23457903
215	0xbc885d1e	-0.016645964
216	0x3d4ef7bd	0.05052923
217	0xbdade4fc	-0.08490941
218	0x3da5014e	0.080568895
219	0x3e1563f1	0.14588906
220	0x3e22d5eb	0.15901916
221	0x3cd9bcef	0.026579348
222	0xbcd2f4cb	-0.025751492
223	0xbd410039	-0.047119353
224	0xbd4dabef	-0.050212797
225	0x3dec048f	0.11524307
226	0xbda795a2	-0.08182837
227	0x3e04c538	0.12965858
228	0xbd74e899	-0.059792135
229	0x3c8bfa56	0.017087143
230	0x3e9627b9	0.2932718
231	0xbd12ab42	-0.035807855
232	0xbdad72a3	-0.08469131
233	0xbd68cdca	-0.05683688
234	0xbe30f9b0	-0.17282748
235	0xbeb8e9dc	-0.3611592
236	0x3e64818d	0.22315045
237	0xbc835e4c	-0.016036175
238	0x3e83a403	0.2571107
239	0x399ed141	0.00030292015
240	0xbd66642b	-0.05624787
241	0x3e8df3f7	0.27725193
242	0xbda9f685	-0.08298973
243	0xbef64777	-0.48101398
244	0xbe10e591	-0.14150073
245	0xbc8453fd	-0.01615333
246	0xbc41aa72	-0.0118204225
247	0xbe83b59e	-0.257245
248	0xbe1cc4e0	-0.15309477
249	0x3da60f82	0.08108427
250	0xbe741d4e	-0.23839304
251	0xbf059816	-0.5218519
252	0x3d2bdb49	0.041957173
253	0x3e6e086b	0.23245399
254	0xbe92bae3	-0.28658208
255	0x3d777165	0.060410876

lm_head.bias f4 [78]
0	0x3e29a5aa	0.16567102
1	0x3e537542	0.20650199
2	0xbea0e7df	-0.31426904
3	0x3d01fac8	0.031733304
4	0x3d64c147	0.055848386
5	0xbe25cd7d	-0.16191669
6	0xbe05196c	-0.12997979
7	0xbe1e055d	-0.15431733
8	0xbdf31a24	-0.1187022
9	0xbe315035	-0.17315753
10	0xbe899575	-0.2687184
11	0xbe3b366a	-0.18282476
12	0xbeaff71e	-0.34368223
13	0xbe8a72d1	-0.27040723
14	0xbe1f2449	-0.15541185
15	0xbe290039	-0.16503991
16	0xbe464243	-0.19361214
17	0xbe3e19b2	-0.1856449
18	0xbe8befdf	-0.27331445
19	0xbe4b4044	-0.19848734
20	0xbe60dd9c	-0.21959537
21	0xbe0c78ed	-0.13718005
22	0xbe1bf8ad	-0.15231581
23	0xbdd49269	-0.10379488
24	0xbe180efe	-0.14849469
25	0xbe879e82	-0.2648812
26	0xbde60d0d	-0.11232958
27	0xbe1e79d2	-0.15476158
28	0xbd8636c7	-0.06553417
29	0xbe1737b1	-0.14767338
30	0xbe498bd6	-0.1968225
31	0xbe80bd7b	-0.25144562
32	0xbdb5e705	-0.08881954
33	0xbe4584a6	-0.19288883
34	0xbeaa429c	-0.33253944
35	0xbe0298fa	-0.12753668
36	0xbe661dff	-0.2247238
37	0xbe0c6d58	-0.13713586
38	0xbe49a11e	-0.19690368
39	0xbe36dcca	-0.17857662
40	0xbe94bf65	-0.29052272
41	0xbe78f36b	-0.24311607
42	0xbe489579	-0.1958827
43	0xbd8defa1	-0.06930471
44	0xbd307561	-0.04308069
45	0xbe29a246	-0.16565809
46	0xbe488573	-0.19582157
47	0xbe7592ba	-0.23981753
48	0xbe58694a	-0.21133915
49	0xbe46ebf0	-0.1942594
50	0xbe49eb14	-0.19718581
51	0xbdc685d8	-0.096934974
52	0x3e930b7d	0.28719702
53	0xbda543e6	-0.08069591
54	0x3d30e5c7	0.043187883
55	0x3dc09aa8	0.09404498
56	0x3e9fb38a	0.31191665
57	0xbe2f6d9c	-0.17131656
58	0x3c419fdc	0.011817899
59	0x3e04b792	0.12960652
60	0x3e7abe98	0.24486768
61	0xbe52f34a	-0.2060062
62	0xbe03bc75	-0.1286486
63	0x3e9693f3	0.2940975
64	0x3dab3f25	0.08361653
65	0x3dbbcd5a	0.09170027
66	0x3e9574eb	0.29190764
67	0xbd5f1616	-0.054464422
68	0xbe6c7a1f	-0.2309346
69	0x3dcfa808	0.10139471
70	0x3e8621b8	0.261976
71	0x3d969a6c	0.073536724
72	0x3e6aee61	0.22942497
73	0xbe9dcf04	-0.30822003
74	0xbdaf3d30	-0.085565925
75	0xbe86f5c1	-0.2635937
76	0x3d864704	0.06556514
77	0xbe881432	-0.26577908
