trained_llm.pth (torch, 203845 bytes, 4 tensors)

token_embedding_table.weight f4 [132, 128]
000000 a9 0f 92 bf 4e 0a 34 bf cf 7d 7e be 32 d7 ca 3e
       -1.1411029 -0.70328224 -0.2485268 0.39617306
000010 ba 3d 20 bf cf 77 48 bf 2b 8d 95 3f be fe 80 bf
       -0.6259419 -0.78307813 1.1683706 -1.0077741
000020 e1 7f 95 bf c5 1b d1 3f c9 80 02 3f b1 4d 82 bf
       -1.167965 1.63366 0.5097776 -1.017996
000030 b8 54 cd be 93 46 01 3e c8 06 c4 3f 92 83 36 bf
       -0.40103698 0.12624578 1.531457 -0.7129451
000040 2c 8d 01 3e be 75 da bd 91 c1 ab 3f b9 1a e1 bf
       0.12651509 -0.10666989 1.3418447 -1.758628
000050 28 96 56 3e 99 a6 a2 3e 7c fc 09 40 b2 cf 3c be
       0.20955718 0.3176773 2.1560354 -0.18438604
000060 4f 66 13 3f ac 7a 82 bf bd 1d 11 bf 4e 97 27 bf
       0.57577986 -1.0193686 -0.56686 -0.6546525
000070 c1 19 3d bf 68 f3 68 3f 5b 29 3c bf 39 42 a3 bd
       -0.7386742 0.9099641 -0.73500603 -0.07971615
000080 cb b1 69 be 84 34 84 3e 80 47 da 3a 8b 4f 97 3e
       -0.22821729 0.25821316 0.0016653389 0.29552874
000090 c0 97 54 bf 3c fd 18 bf e8 90 c2 3f 1d 97 9c bc
       -0.8304405 -0.59761405 1.5200472 -0.019115025
0000a0 95 f2 2f bf 2c 6d 01 3f f7 cb 9e bf e9 09 17 40
       -0.68729526 0.5055721 -1.2405995 2.3599799
0000b0 f0 42 8f 3f 2f 08 c0 be 99 67 ab be 84 57 d5 3f
       1.1192303 -0.37506244 -0.33477476 1.6667333
0000c0 a0 98 89 3f 8b 89 32 3f 48 f7 04 3f 80 5a 50 3e
       1.0749702 0.69741124 0.5193982 0.20347023
0000d0 14 3b 51 3f 33 25 c1 3d d1 76 99 bf 84 fd 9d be
       0.8173077 0.09430923 -1.1989385 -0.3085748
0000e0 6a 4f 39 40 f3 0b 2f 3e 77 bb a0 3e 88 84 89 bf
       2.895472 0.17094402 0.31393024 -1.074357
0000f0 90 92 98 3f 86 3c 91 3f 2f dc 86 3e c5 bb a2 3f
       1.1919727 1.1346595 0.26339862 1.2713553
000100 6a a5 ed bc f4 30 93 bf fc e1 df 3e 2f 1d a8 bd
       -0.02900954 -1.1499314 0.437271 -0.08208691
000110 3d 55 31 bf 02 01 81 bf 50 14 61 3e 28 15 4c bf
       -0.6927069 -1.0078433 0.21980405 -0.7971978
000120 67 a5 0a 40 60 31 c1 bf 72 21 80 bf 87 93 b5 be
       2.1663454 -1.5093193 -1.0010207 -0.35464117
000130 db de d3 bf 1a 02 a1 3e d6 19 4a bf 9b c8 99 bf
       -1.6552385 0.31446916 -0.7894567 -1.2014345
000140 ab 7f 85 3f 9d 5e a3 be d5 b8 27 3f a4 fa e6 be
       1.0429586 -0.31908122 0.65516406 -0.451131
000150 e9 ad 82 bf 36 d2 3a 3f 3e 51 80 3f 7a 21 55 bf
       -1.0209323 0.72977006 1.0024793 -0.83254206
000160 de e4 bd be d4 9b e4 be 8e c3 15 40 56 9b c1 3f
       -0.37088674 -0.44650137 2.3400607 1.512553
000170 69 42 4c 3e cf 66 ac 3f 51 8c 88 3e 87 31 7b 3e
       0.19947208 1.3468875 0.26669553 0.24530612
000180 97 29 07 bf 07 1d 39 3d f6 20 89 bf 47 d9 a8 3e
       -0.52797836 0.0451937 -1.0713184 0.3297827
000190 b1 f2 e0 3e 95 9a 88 3f d4 7e fc bf 51 f2 9f bf
       0.4393516 1.0672175 -1.9726205 -1.2495824
0001a0 a4 ea 08 c0 f8 9b cb be b4 87 8c bf c1 1c a3 bf
       -2.1393213 -0.39767432 -1.0978913 -1.274315
0001b0 aa 75 04 3e 33 da 44 3f fe e8 5a bf a0 be 04 bf
       0.1293551 0.76895446 -0.8551177 -0.5185337
0001c0 1b 32 99 3f 8e fc 40 3f 65 b1 79 bf 50 af 39 3e
       1.1968416 0.7538537 -0.9753631 0.18133283
0001d0 ec 07 89 be 03 34 00 bf b6 0b ee 3f 39 bd 20 3f
       -0.26763856 -0.50079364 1.8597324 0.6278873
0001e0 f2 21 b5 bf 6e 96 3d bf d8 b3 f1 bf 33 12 b0 bf
       -1.4150984 -0.7405766 -1.8883009 -1.3755554
0001f0 2c ce 9e 3f 39 fc a2 bf ac f7 a0 3e 87 21 9e bd
       1.2406669 -1.2733222 0.3143896 -0.077212386
000200 9e b3 2b 3e bd f1 be 3e 76 0f d0 3c d1 66 e3 bf
       0.16767737 0.37293807 0.025397997 -1.7765752
000210 ec 3c d3 bf fe 24 5f 3f 2b 44 fe be 34 34 89 3f
       -1.6502967 0.8716582 -0.49661383 1.0719056
000220 24 d2 25 be eb 75 c3 3e b1 b7 0b bf 66 c6 64 3f
       -0.16193444 0.38175902 -0.54577166 0.8936523
000230 a5 93 6c 3f 9e ae 14 3f de 8e 22 3f 7e e0 71 bf
       0.9241279 0.58078945 0.6349925 -0.9448317
000240 f1 b2 89 bf 9d 15 a5 bf 13 4f 6f 3f 6a ed 34 bf
       -1.0757734 -1.2897221 0.9348003 -0.70674765
000250 fe 9d ac 3f 9a 4f 36 3d 48 56 3d 3e be 48 d4 bf
       1.3485715 0.044509508 0.18489945 -1.6584699
000260 b9 8f 01 3f 70 40 22 bf ff 01 a4 bf 5e f5 6a 3d
       0.5060993 -0.63379574 -1.2813109 0.057362907
000270 f0 73 90 bf 7e a7 5c 3f 6a 2d c8 bf 40 39 07 3f
       -1.1285381 0.8619307 -1.5638859 0.5282173
000280 c7 c5 9d be ec f1 4e 3f f0 ea c2 3d fd 9a 04 c0
       -0.30814955 0.80837893 0.09517467 -2.0719597
000290 f9 c1 ca bf 2c 89 ae 3f 08 97 cb 3e df 87 b5 3f
       -1.5840446 1.3635612 0.39763665 1.418209
0002a0 0b ac 11 bf 1b 2f 0d bf 89 a5 c9 3d 3f 75 1a bf
       -0.5690314 -0.5515 0.098460265 -0.60335153
0002b0 63 c5 e3 3e 84 8c 91 be da 35 93 be 19 09 3c 3c
       0.44486532 -0.28427517 -0.28752023 0.011476778
0002c0 b1 a8 f6 3e 14 44 37 3f a9 57 8f be c9 92 1f be
       0.48175576 0.71588254 -0.27996567 -0.15583338
0002d0 ca 75 91 3f f3 0c ab 3e 0f 6a 45 bf d6 3a 16 3f
       1.1364071 0.33408317 -0.7711496 0.58683527
0002e0 7b bf fd be 43 be b6 3c 93 a6 00 be 6e b3 88 be
       -0.4956015 0.02230752 -0.12563543 -0.26699394
0002f0 19 c5 1e bf 89 92 2d 3f 08 b6 aa bb f1 ab b9 bf
       -0.620195 0.6780172 -0.005209688 -1.4505597
000300 40 d8 26 3f 7c 8b 45 3f d1 c1 1b c0 d2 e4 9c bf
       0.6517372 0.7716596 -2.4337046 -1.225733
000310 83 1c 0d bf d4 77 7c 3f a9 94 cb 3d bd ef c2 bf
       -0.5512163 0.98620343 0.09940464 -1.5229412
000320 46 50 8c be aa a0 38 bf 59 d7 18 bf 4b 3f 74 be
       -0.27404994 -0.72120154 -0.59703594 -0.2385227
000330 50 20 ad bf 8a 4d 8f 3e 7a 40 71 be 53 21 1d be
       -1.3525486 0.27988845 -0.23559752 -0.15344743
000340 44 ed ab be c2 21 3e bf 30 36 fd 3e 6a 79 00 bd
       -0.33579457 -0.7427026 0.49455404 -0.03136579
000350 4a 02 2c bf 4d d1 0e 3f 0b 7a 9d be 7d b2 a2 bf
       -0.6719099 0.5578812 -0.30757174 -1.271072
000360 4f 71 2b 3f 2d f2 51 3e 7a 6c 94 3e f8 73 16 3f
       0.6696977 0.20502539 0.2898901 0.58770704
000370 3f 2c d3 3c 0d de 1e bf cc 0f 06 c0 bf d5 00 3d
       0.025777934 -0.6205757 -2.0947142 0.031453844
000380 0f b2 31 3f 10 0e a2 3b 71 ac 01 40 9c 41 64 3f
       0.6941232 0.004945524 2.02615 0.8916261
000390 6a b3 fd be c7 3a a7 3f 44 03 c5 bf 0d 05 82 3e
       -0.49550945 1.3064812 -1.5391622 0.25394478
0003a0 1b c2 aa be 7d 79 3c c0 1a f7 f3 3e 38 7f 84 be
       -0.33351216 -2.944915 0.4764946 -0.2587831
0003b0 fd 43 80 bf 05 b6 90 3f 11 ed 4f 3e dd 53 07 3f
       -1.0020748 1.1305548 0.20305277 0.5286234
0003c0 ac c3 fe be 99 94 f8 be b9 71 b5 bf a0 f2 0a bf
       -0.4975866 -0.4855087 -1.417533 -0.54276466
0003d0 08 ea 8a 3e 12 bd fe 3d 79 2c 32 3f 10 46 19 bf
       0.27131677 0.12438406 0.6959911 -0.5987253
0003e0 b1 86 be 3d b1 7a a5 3f b2 d6 f4 be ec f7 83 bb
       0.09303034 1.2928067 -0.4782005 -0.0040273573
0003f0 a4 62 6e 3f 93 fc be be e5 1a 08 bf 7b c1 55 bf
       0.93119264 -0.37302074 -0.5316604 -0.8349835

position_embedding_table.weight f4 [128, 128]
000000 9d 35 68 3c 57 84 8a 3e d2 91 17 3f b2 89 f2 be
       0.014172939 0.27054092 0.5920688 -0.47370678
000010 e0 2f b1 bf f2 c6 cc 3d 8b a0 c0 bf d5 36 d9 bc
       -1.3842735 0.09998883 -1.5048994 -0.026515404
000020 d6 07 c0 be 34 1a 57 3f 0c 2a 1a 3f 96 74 96 be
       -0.37505978 0.8402436 0.6022041 -0.29385823
000030 fe 4e f8 bd 46 5f 4d bf 19 84 7e 3f 85 b2 59 bf
       -0.121244416 -0.802235 0.99420315 -0.85038024
000040 7e d6 50 3f b1 61 0f 3f 70 e5 a2 bd e0 7b 8a 3f
       0.8157729 0.5600844 -0.07953918 1.0819054
000050 42 be 87 bf ef b8 d6 bc 4b 38 5c be 12 30 47 3e
       -1.0604937 -0.02621123 -0.21505849 0.19451931
000060 84 2e 89 bf 95 c6 c2 3d 23 19 2a bf fe 86 86 3e
       -1.071732 0.09510533 -0.66444606 0.26274866
000070 f1 27 3e bf 6f d3 31 be 72 8e 9c 3f 7d d1 91 be
       -0.74279696 -0.17365812 1.2230971 -0.2848014
000080 e4 af cc bf 05 b9 5c 3e e3 25 93 be e1 e5 89 3e
       -1.5991178 0.21554954 -0.28739843 0.26933196
000090 63 09 c3 be c9 94 a6 3e a5 6d 8d 3e 1a e9 42 bf
       -0.380931 0.3253539 0.27622715 -0.76136935
0000a0 0a 86 80 3e 41 29 8c be 17 b6 ad be 3c 83 f3 3e
       0.25102264 -0.27375224 -0.33927986 0.4756106
0000b0 15 cb 9a 3e da 68 00 bf 65 a6 8a bd fb 85 1e 3f
       0.30233064 -0.5015999 -0.067700185 0.6192319
0000c0 1b 24 1f 3f 1f 51 2a bf 16 9e 63 3e 60 97 7f bf
       0.6216447 -0.6653003 0.22228274 -0.99840355
0000d0 00 eb 00 bf b3 d2 75 bd ba ce 74 3f fd 89 3e 3f
       -0.5035858 -0.06001539 0.9562794 0.74429303
0000e0 3c f6 ac 3d 17 96 80 3f e3 54 10 3c 6a 59 d5 bd
       0.08445403 1.0045804 0.008809301 -0.10417445
0000f0 cd e3 46 bf ad f0 ca 3d e1 3a b0 bf 3a 34 52 bf
       -0.77691346 0.099091865 -1.3767968 -0.8211094
000100 98 cc b3 ba 30 dd ed 3e 8a 2a 83 3d 45 1b 0c bf
       -0.001371759 0.46457815 0.06404598 -0.5472911
000110 7f b3 cd 3e 52 d0 0c bf e8 7b 3a 3f 43 1d 57 bf
       0.40176007 -0.5500537 0.72845316 -0.84029025
000120 43 0c c3 3e 8b f7 71 bd ac 73 2a 3f 6d 53 d1 3e
       0.38095292 -0.059073966 0.6658275 0.4088396
000130 bb 4f be bf 2a 2b f5 3f 35 aa 82 be af 95 57 bf
       -1.4868082 1.9153798 -0.25520483 -0.84212774
000140 67 43 c7 3f 9c f3 c9 be f8 c4 d4 bd 78 6f 20 3f
       1.5567445 -0.39443672 -0.10389131 0.6267009
000150 66 3f 43 3f e2 1c 4c 3e 5f 8b 54 bf ba 4b 70 3e
       0.76268613 0.19932893 -0.83025163 0.23466387
000160 72 b0 9c 3f f0 59 a6 3f 80 b7 4d 3e 2b d3 d0 3f
       1.2241347 1.2996197 0.20089531 1.6314443
000170 46 ae 0b bf 43 ab 91 bf c0 0d 71 be 55 d4 e1 3e
       -0.54562795 -1.138039 -0.23540401 0.4410731
000180 0d 5f 39 be 49 a1 90 bc de c3 07 be d8 96 ff 3f
       -0.18102665 -0.017655032 -0.13258311 1.9967909
000190 ac 83 21 3f 19 bf 89 be 61 a4 26 3e fc e1 9c 3f
       0.6309154 -0.26903608 0.16273643 1.2256465
0001a0 94 b4 3c 3f 2e fb 36 bd cc 4a ac bf 4c ad 39 bf
       0.7371304 -0.044673137 -1.3460326 -0.72530055
0001b0 bd 4d bd bf ba 6d 97 bf 31 47 92 3f ce 35 3c 3f
       -1.4789349 -1.1830361 1.1427976 0.735196
0001c0 7b 49 0e 3f bc a4 29 be aa 32 19 3f 4b 65 4f bf
       0.5558087 -0.16566747 0.5984293 -0.81013936
0001d0 f3 fb 3e bf 10 fc f1 3f 5e df 7d 3f 85 cc 97 be
       -0.74603194 1.8905048 0.99168956 -0.29648224
0001e0 1a d1 44 3e 30 21 8a bf f8 94 8f 3f 65 36 b1 3f
       0.19220391 -1.0791378 1.1217337 1.3844725
0001f0 6d 5b 94 3e ac 83 41 bf 01 e7 8a 3f 50 3b 6b 3f
       0.28976002 -0.7559154 1.0851747 0.9188738
000200 f9 5b cd bc 3c 75 da 3e 5b 8d 65 bf 51 58 fb 3d
       -0.02506827 0.42667568 -0.89668816 0.122727044
000210 f4 32 1d be d5 79 50 3f c7 db 96 3f c2 e4 91 be
       -0.15351468 0.814359 1.1785821 -0.2849484
000220 79 0c 83 bf 24 72 89 3f ca c8 a7 bd 05 dd bd be
       -1.0238181 1.0737958 -0.08192594 -0.37082687
000230 05 d5 f4 3e cc b5 8e 3e 07 62 ef 3f 30 ae a0 bf
       0.4781877 0.27873075 1.870179 -1.2553158
000240 ae 1a 62 bf 51 89 55 3f 00 f3 34 3f 8d 03 39 be
       -0.8832196 0.83412653 0.7068329 -0.18067761
000250 10 c0 d1 3f 18 33 67 be 77 97 90 bf 6f 49 e3 be
       1.6386738 -0.22578084 -1.1296223 -0.44391963
000260 22 9d c8 be f9 18 83 be 48 89 13 3f 0c 9e 66 3f
       -0.39182383 -0.2560499 0.5763135 0.9008491
000270 50 68 cf be fe cd 32 3f 83 55 10 3f c3 c2 8d bd
       -0.40509272 0.6984557 0.5638048 -0.069219135
000280 5c a8 87 bf 9d cf e0 be d6 4a f6 3e 8b dd a7 3e
       -1.0598254 -0.43908396 0.4810397 0.3278621
000290 d3 89 91 3f 94 73 42 3e f8 f8 45 bf ae 97 89 be
       1.1370186 0.18989402 -0.7733302 -0.26873535
0002a0 9f 9c c6 3e 30 43 8d bf fd db 9e 3e 57 68 49 be
       0.38791367 -1.1036129 0.31027213 -0.19668709
0002b0 14 77 63 3e c5 27 4a be b7 41 6c 3f d4 e8 e3 be
       0.22213393 -0.19741733 0.9228777 -0.4451357
0002c0 20 d3 9a be 3e d2 ee be eb b8 a6 3e 13 9a a2 3e
       -0.302392 -0.46644777 0.32562956 0.31758174
0002d0 08 5c 3b bf 23 ae af 3e 68 6e 1f be 96 ef 2f be
       -0.73187304 0.34312543 -0.1556946 -0.17181239
0002e0 47 7b 9f be d1 c1 d3 3e dd 67 cb be b9 b0 18 3d
       -0.3114874 0.41358808 -0.3972768 0.03727791
0002f0 18 a9 7c bf f1 5a d9 3e 8f e0 d9 bf b2 0b 52 bf
       -0.98695517 0.42452195 -1.7021655 -0.82049096
000300 0b 29 25 40 8b 1e 80 3f 94 0b 2e be 13 82 07 3e
       2.58063 1.0009321 -0.16996604 0.13233213
000310 b7 bf 34 3e 94 b5 b0 bf 26 c0 95 3f 18 a9 d1 be
       0.17651258 -1.3805413 1.1699264 -0.4094932
000320 ba a2 e8 bd 8f ab 65 be cc 1a 88 3f d4 4d e3 be
       -0.11359163 -0.22428726 1.0633178 -0.44395316
000330 c3 b5 9c 3f 36 11 12 bf 17 78 1d 3f 4b 74 8b 3f
       1.2242969 -0.5705751 0.6151137 1.0894865
000340 2f 49 cc 3f 8d a9 42 3f 25 98 b5 3f 9d 85 73 3f
       1.5959834 0.76039964 1.4187056 0.9512575
000350 a0 92 16 3f 22 f3 a9 bf f0 e8 28 3d 90 c3 98 bf
       0.5881748 -1.3277323 0.04123777 -1.1934681
000360 c4 74 81 3e 1e 27 6a bf 77 64 bf 3d ad 92 19 bf
       0.25284398 -0.9146594 0.09345334 -0.59989434
000370 8e 7b db 3e 3a 1f 8a 3f 83 4f 86 bf 9f c7 98 3f
       0.42867702 1.079078 -1.0493015 1.193592
000380 0b c3 ec 3e ad b2 56 3f d8 4c 26 3f 76 b9 ac bf
       0.46242556 0.8386639 0.64961004 -1.3494098
000390 a6 8c 23 40 15 3b 01 bf a1 0a 3f bf 11 2e 91 3e
       2.5554595 -0.5048078 -0.74625593 0.28355458
0003a0 42 31 a3 3f 97 cb 06 bf 20 b1 1e be 0d f9 9b be
       1.2749407 -0.52654403 -0.15497255 -0.30463448
0003b0 31 41 ac 3f 72 18 d4 3f 2c af 10 3f ab 66 8e bf
       1.3457395 1.656996 0.5651729 -1.1125082
0003c0 89 eb 41 bf 9b a5 12 bf a3 0a 0c 3f 04 0f b7 3f
       -0.75750023 -0.57283944 0.5470373 1.4301457
0003d0 85 eb 73 bf d5 1c ee be c8 f5 07 3f c6 d0 38 3f
       -0.9528125 -0.46506372 0.5310941 0.72193563
0003e0 d4 4c 2a bf 1f 52 6b 3f 19 05 f8 ba 9e 71 9d 3e
       -0.6652348 0.9192218 -0.0018922418 0.30750746
0003f0 8e a5 8b be 8f 19 c4 3e 06 ae d7 3e 72 e8 8a bf
       -0.27274746 0.3830075 0.42124957 -1.0852187

lm_head.weight f4 [132, 128]
000000 83 a3 f2 bc 30 49 a4 bb e0 26 d8 bc 61 8b 35 bb
       -0.029618984 -0.0050136074 -0.026385725 -0.0027701485
000010 23 7e b7 3d 71 26 44 bd b5 28 84 3e 4a cd 22 bd
       0.089596055 -0.047888223 0.25812307 -0.03974656
000020 5a 70 e8 bd b5 2b 3b 3e 20 72 20 3e 16 90 d0 3b
       -0.11349554 0.18278392 0.15668535 0.0063648326
000030 66 5a 3e be bb 0d 8d 3d d5 c5 c6 bc 2d 3a 8e bd
       -0.18589172 0.068873845 -0.024264256 -0.0694469
000040 9b 89 9b 3d 97 04 af bc fc f1 b4 3a 56 48 95 3d
       0.075946055 -0.021364493 0.0013805027 0.072891876
000050 5a bc 10 bd ba f1 22 bc 66 34 51 3e dc 8c c9 3d
       -0.035335876 -0.009945327 0.20430145 0.0984132
000060 6b 20 fa bd de aa 79 3d aa be c4 bc b1 76 b1 3d
       -0.122132145 0.060953967 -0.024016697 0.08665217
000070 6e bd a0 3d 52 14 44 3e cf c6 13 be a5 97 f9 bd
       0.07848631 0.19148377 -0.14431308 -0.12187127
000080 b1 41 47 3d d1 49 8e 3b 56 30 6a bd c9 0f 94 bd
       0.048646633 0.0043422957 -0.057175003 -0.07229573
000090 64 05 30 3e 3b 25 36 be 9c 52 00 be a5 8e 81 bd
       0.17189556 -0.1778764 -0.12531513 -0.063260354
0000a0 68 76 82 bd ce 4e 22 3e 53 db a8 3d 85 51 d3 3c
       -0.063702404 0.15850374 0.08244958 0.025795707
0000b0 db 43 8f 3c 98 18 40 be 3f 45 a6 3b 9d 89 2d 3e
       0.01748841 -0.18759382 0.0050741727 0.16947027
0000c0 25 f2 23 bd ab e7 a4 bd 90 64 1b 3c e6 e3 6b 3d
       -0.04002585 -0.08052 0.009484425 0.057590388
0000d0 a4 55 1b 3c 86 25 9f bd 2b 82 6b be ae df fe bd
       0.009480868 -0.07770829 -0.22998874 -0.12445007
0000e0 5e a7 f1 bc 42 c5 89 3d 2c ea 24 bd 87 10 c3 3a
       -0.029498752 0.06727077 -0.040262386 0.0014882245
0000f0 c6 87 be 3d 25 e4 04 3d 26 1b 44 be 7f 97 cb bd
       0.093032405 0.032444138 -0.19150981 -0.09941005
000100 4c 00 2a 3d 3b 31 07 be 26 c6 d6 3c 98 27 27 3c
       0.04150419 -0.13202374 0.026217531 0.010202311
000110 cc dd f1 3d 1b 61 b8 bd ac 8c f6 3c ac 7a ee 3d
       0.118098825 -0.090028964 0.030096374 0.116444916
000120 2e 52 95 3d 7d 50 29 3e 0a 0c 68 b9 0a bd bd bd
       0.07291065 0.1653461 -0.00022129729 -0.09264572
000130 5d 09 f5 bb e4 db 23 3e 01 7e 91 3d ac 42 53 be
       -0.007477923 0.1600185 0.071041115 -0.20630902
000140 3b c6 f3 3d 26 ef 90 bd c6 bd 85 bd fa 53 be 3d
       0.11903044 -0.07076864 -0.06530337 0.09293361
000150 f9 d8 13 be a9 71 3c bd 67 00 5c 3d bf 87 aa 3d
       -0.14438237 -0.046006832 0.05371132 0.08326673
000160 37 db 46 bd de c1 b4 bd f3 4a 9c 3d dd 13 0b 3d
       -0.048548903 -0.0882604 0.07631483 0.03395449
000170 3a fb 1e 3e 63 17 c5 3d 14 c4 3d 3e 48 b3 92 bd
       0.15525523 0.09623601 0.18531829 -0.071631014
000180 c4 11 67 bc b1 97 b2 3b 3f ad 89 be 3f 56 20 bd
       -0.014103357 0.005450212 -0.2688999 -0.03914475
000190 0c d8 64 3c e0 b5 35 bd f6 04 40 be ca 00 f4 3c
       0.013967525 -0.044362903 -0.18751892 0.029785533
0001a0 32 f0 a2 bd 86 09 c7 3d 98 bc b6 be e4 b6 ab 3c
       -0.0795597 0.09718613 -0.3569076 0.020961232
0001b0 c6 2d e0 3d 36 9d 41 be 34 f1 f5 3c 9d 8a 56 be
       0.109462306 -0.18907627 0.030022241 -0.20951314
0001c0 45 b4 1c 3e 3d c6 e4 bc cd f5 0f be 77 4a 0b bb
       0.15303142 -0.027926559 -0.1405861 -0.0021254101
0001d0 94 19 30 bc 26 79 8a bd cf 99 50 3d 9a 4d 9b 3d
       -0.010748286 -0.067613885 0.050927933 0.07583161
0001e0 0e 95 c4 3c fc 20 06 3d 29 b1 64 bd a1 0e 29 bd
       0.023996856 0.0327463 -0.055833016 -0.041273717
0001f0 35 9e 81 3d 9c 90 3b bd 14 87 01 3e 09 4b d7 3d
       0.06329004 -0.045792207 0.12649184 0.10512359
000200 57 72 10 3d c6 8e f6 3d 9c 0f 6a bd d0 d7 9f 3d
       0.035265293 0.120389506 -0.057143793 0.07804835
000210 c1 84 ec bd 2b b9 48 bd f6 6a 60 3e df 3f 5c be
       -0.11548758 -0.049004715 0.21915802 -0.2150874
000220 cf aa 47 be 1e 2f 21 3e c5 38 44 3e b5 cf 4e 3e
       -0.19498752 0.1574063 0.19162281 0.20196421
000230 06 9b a1 3d 9e 8a 44 be 4c 85 13 be da 99 33 be
       0.078908965 -0.19193503 -0.14406317 -0.17539158
000240 e1 ec c4 3d 4c 24 b4 3c fc 76 12 3c 8f 7b c3 3d
       0.096154936 0.021989964 0.008939501 0.09545051
000250 08 f7 0d bd 7b 62 a0 bd a7 3e f2 3d d4 4e c3 3b
       -0.034659415 -0.07831284 0.11828356 0.005960325
000260 76 f5 0e be 10 dd a8 3e a0 4e bc bd ba 5f f7 3d
       -0.13960823 0.32981157 -0.09194684 0.12078805
000270 91 b8 90 3d f8 8a 03 3e c6 06 4d bd d4 f2 e1 bd
       0.07066453 0.12845981 -0.050055288 -0.11032644
000280 ff c5 fd bc 24 38 40 3d 87 8e 3b bd f9 6b da bd
       -0.030978201 0.04692854 -0.04579022 -0.106651254
000290 65 a8 5e bd 83 86 ce bd f1 4d 39 be ca 63 86 bd
       -0.054359812 -0.1008425 -0.18096139 -0.06562002
0002a0 65 04 49 bd c2 b2 de bd 26 08 72 3d 27 c9 0b 3e
       -0.049076457 -0.10873939 0.059089802 0.13650952
0002b0 52 1e d9 bd 44 b8 00 be cc 17 d1 bd 32 c4 ad bd
       -0.10601486 -0.12570292 -0.10209617 -0.08484687
0002c0 c4 01 b0 bd 94 c4 c9 bd 6d 85 3b 3e e1 3c 39 3d
       -0.08594087 -0.098519474 0.18312617 0.045224074
0002d0 bf cf f8 bd 45 c6 fc bc d2 f1 96 3c ec 09 4b be
       -0.121489994 -0.030856261 0.018425856 -0.19828004
0002e0 64 08 a8 3c 96 20 f2 bd d3 e8 ad bd d3 e3 3c 3e
       0.020511813 -0.118226215 -0.08491673 0.18446283
0002f0 9c 71 57 3d 9a b5 4d be 6a cf 9c bd 67 93 2d bd
       0.05259858 -0.20088807 -0.076567486 -0.042376902
000300 42 f1 fe bd bb 76 3a be 16 3a 7c bd 83 8b 56 3d
       -0.1244836 -0.18209355 -0.061578833 0.052379142
000310 a9 84 50 3e be b4 38 bd 59 8c 91 3d c1 84 00 bd
       0.20363106 -0.045094244 0.07106847 -0.031376604
000320 30 a7 b2 3d d6 df 29 3e f6 4a be bb 5f 2d 90 bd
       0.08723295 0.16589293 -0.005807276 -0.07039904
000330 60 90 0b 3e 4a 21 01 3e fe b5 36 3e 3b ce 38 be
       0.13629293 0.12610355 0.17842862 -0.1804742
000340 66 8c 2f 3e f7 52 9f bd 8e 1c 8f bd aa 74 c3 3d
       0.17143402 -0.07779496 -0.06987868 0.09543736
000350 68 e5 51 3e 61 c0 18 3d 9f f3 37 be 8e ce dc 3d
       0.20497668 0.03729284 -0.17964028 0.10781585
000360 e4 aa c0 37 54 48 71 3d cb 7e ed bd 98 1f e1 bd
       2.296776e-05 0.058906868 -0.115964495 -0.10992354
000370 fb 18 88 3d 30 2e b0 3d 21 9c a4 3e fd df c9 bd
       0.0664539 0.086025596 0.32150367 -0.098571755
000380 c3 b7 b0 bd 7c 75 f5 bc 09 ae ba 3c 2d b0 ab 3d
       -0.086288 -0.029963247 0.022788065 0.08383212
000390 c3 a7 cb 3d 54 f8 66 be d2 4c 1c be dc 46 11 3e
       0.099441074 -0.22555667 -0.1526368 0.14187187
0003a0 df 4d 34 3d 42 4f b6 bd ee 0b b7 bd 3f 2a 45 3c
       0.044019576 -0.08901836 -0.08937822 0.012033998
0003b0 6f 27 cb 3d 81 a2 01 bd 94 f8 b7 bb b7 59 6a be
       0.09919631 -0.031649116 -0.0056143496 -0.22885786
0003c0 a4 fe 17 3d 3a 12 3f 3c 20 3a 19 bd 28 4f 06 3e
       0.03710808 0.01166206 -0.037408948 0.13116133
0003d0 e4 53 80 bd 8d 4f 46 bd 83 cb 93 3d 13 74 dc 3d
       -0.06266001 -0.04841571 0.07216551 0.10764327
0003e0 8c ee e8 3c d0 0b 11 3e 8a 44 79 3e 10 80 51 3d
       0.02843406 0.14164662 0.24342552 0.05114752
0003f0 c0 27 02 be 80 c1 66 3e 98 4f a1 3d 14 8a b7 3d
       -0.12710476 0.22534752 0.078765094 0.08961883

lm_head.bias f4 [132]
000000 d7 e1 50 3e e0 22 85 3e 94 9b 81 be 6b 52 0f be
       0.20398651 0.2600317 -0.2531401 -0.13996284
000010 4e 66 d9 bd 2c 84 5c be b4 20 48 be e5 a2 94 be
       -0.10615216 -0.21534795 -0.19543725 -0.2903053
000020 c4 cb 68 bd eb ef 29 be e4 ce 1d bb 05 46 9b be
       -0.05683495 -0.16595428 -0.0024079615 -0.30326858
000030 4c 2b d8 bd 63 ff df 3c 6f 8c ec 3a b6 8e a2 bd
       -0.10555133 0.027343458 0.0018047224 -0.07937376
000040 55 3f a0 bd b8 4e ad bd cc 51 25 bd 88 d6 ff bd
       -0.078245796 -0.0846228 -0.04036121 -0.124920905
000050 ae 59 47 be d2 4b d8 bd 01 5e bb bd 19 9f 96 be
       -0.19467804 -0.105613366 -0.09148789 -0.29418257
000060 a2 8a 9b be 39 02 ae be 17 66 0e be 92 7e db 3a
       -0.30379206 -0.3398607 -0.13906132 0.0016746095
000070 31 9d cc bd e9 18 bf 3c a9 4a 2e bd 14 de b6 bc
       -0.099909194 0.023327308 -0.04255167 -0.022322692
000080 e3 fa 21 be 62 96 e7 bd ef d2 2e be 55 35 37 3d
       -0.15818362 -0.1130798 -0.17072652 0.044728596
000090 55 34 62 be af 6b bb bd 5d a8 07 be 2e a4 0c bd
       -0.22090276 -0.091513984 -0.13247819 -0.03433626
0000a0 5a f6 e4 bd f2 59 5d bd d4 bb 67 bd 48 bc 2b be
       -0.111798 -0.054040857 -0.05657561 -0.16771042
0000b0 8a 31 9d bd 9f 2a d2 3c ee 69 e6 bd dc f1 9c bd
       -0.076754645 0.025655089 -0.11250673 -0.076633185
0000c0 af 94 e1 bd 4d b9 4c be df 7e 3d be 2d b5 f1 bd
       -0.11014687 -0.19992562 -0.18505429 -0.11802135
0000d0 e8 a5 1a be 44 1e c5 bd 0c cc f9 bd 0b 7f 95 be
       -0.1510235 -0.09624913 -0.12197122 -0.2919849
0000e0 4b 03 28 3e 26 4b da bc 44 fa 9d bd ac 81 f1 3c
       0.16407506 -0.026647162 -0.0771375 0.029480778
0000f0 61 76 09 3e 8b 97 a7 bd f0 7e a9 bd 9d 16 18 3e
       0.13424064 -0.081832014 -0.082761645 0.14852376
000100 ad 5c 2e 3e 99 60 6d be d5 2c 0f bd c4 cd 03 3e
       0.1702754 -0.2318138 -0.034954865 0.12871462
000110 28 97 e4 3d cf 6c e3 3d a7 43 e7 3d 83 04 a2 bd
       0.11161643 0.11104738 0.112922005 -0.07911017
000120 d9 cc 21 be aa 6b d2 3d 42 be 02 3e af db af 3d
       -0.158008 0.102744415 0.1276789 0.08586823
000130 61 e9 08 3e 50 3d 10 bd 8f 8c 82 3d 08 77 67 be
       0.13370277 -0.035214722 0.06374466 -0.22604
000140 db 7a e1 bc d4 ed dd bd 57 e6 2b be d9 e1 88 be
       -0.027524402 -0.10836378 -0.16787086 -0.26734808
000150 97 9d 60 be 06 88 79 be 50 41 2d be d4 d7 32 be
       -0.21935116 -0.24368295 -0.16919446 -0.17465144
000160 0e 3b 5a be 8f 33 45 be 0b 56 88 be cc 39 73 be
       -0.2131159 -0.1925795 -0.26628146 -0.23752517
000170 db e4 8b be 46 e1 0a be 60 86 77 be 80 01 5a be
       -0.2732304 -0.13562497 -0.24172354 -0.21289635
000180 8c b4 80 be c2 a1 3c be 04 6a 75 be 00 27 89 be
       -0.25137746 -0.1842108 -0.23966223 -0.26787567
000190 4b 21 2d be 00 49 83 be c9 cb 0d be 49 37 f2 bd
       -0.16907232 -0.25641632 -0.13847269 -0.11826951
0001a0 9f 0a 33 be 51 c1 2e be 72 b6 6a be 2f b6 88 be
       -0.1748452 -0.17065932 -0.2292116 -0.26701495
0001b0 07 3b 37 be 25 cf 98 be 8f 68 8b be 5d 9b 7e be
       -0.17893611 -0.2984554 -0.2722821 -0.24863954
0001c0 c0 ca 51 be d4 0c 33 be 88 37 5c be 85 42 40 be
       -0.20487499 -0.17485362 -0.21505558 -0.18775375
0001d0 21 7f 56 be 80 34 f7 bd 00 31 01 be bf 91 4b be
       -0.20946933 -0.120705605 -0.12616348 -0.19879816
0001e0 67 c2 61 be c1 99 ac be 15 5f 1c be b8 2b 7f be
       -0.22046815 -0.33711055 -0.15270646 -0.24919021
0001f0 8e 0d 93 be 9d 0f 66 be c4 a6 25 be 0b 10 45 be
       -0.2872128 -0.22466893 -0.16176897 -0.19244401
000200 8b db 7c be 27 5a 3b be c7 bc 97 be 8f 24 6e be
       -0.24693124 -0.18296109 -0.29636213 -0.23256133
